predict_titanic/checkpoint.pth (torch, 148189 bytes, 24 tensors)

0.weight f4 [128, 10]
000000 0a e8 22 be f6 8f 27 be d5 3f 62 be 43 7d 8b 3e
       -0.15908828 -0.1636351 -0.22094662 0.27244005
000010 94 a3 b2 bd bc bd 17 3e 6f 79 2e be 78 a9 26 3e
       -0.08722606 0.14818472 -0.1703851 0.16275585
000020 00 70 fe 3d d3 8e 1c be 91 4f 8d bc 2f d4 26 be
       0.12423706 -0.15288858 -0.017249854 -0.16291879
000030 6b 7b c0 be d0 ec d3 be 94 5c 08 be 4f e2 15 bf
       -0.3759416 -0.4139161 -0.13316566 -0.58548445
000040 90 a3 f2 3d 57 19 c3 be 74 ac a5 3d 2d cc f9 3d
       0.11847603 -0.3810527 0.080895334 0.121971466
000050 25 b2 96 be 4e 13 cc bd c4 08 67 3c 52 d1 55 bd
       -0.29432788 -0.099646196 0.014101211 -0.052201577
000060 c1 81 19 3d b8 ba 6f be af 4c 2f be 0a 4e b7 bb
       0.03747726 -0.23411071 -0.17119096 -0.00559402
000070 26 d3 37 3e 73 74 de be e8 fe 71 be 37 6e 3c be
       0.1795164 -0.4344822 -0.23632395 -0.18401419
000080 60 63 29 be 44 63 cf 3d 74 c2 b4 3d a2 49 53 be
       -0.16541815 0.10126355 0.088261515 -0.20633557
000090 32 a4 06 3e 3a 5b 10 be c8 55 99 be 20 4c 43 bd
       0.13148573 -0.140973 -0.29948258 -0.04768002
0000a0 8f ef 9b be 6c 24 63 3e 85 ac 20 bd 81 7a 35 3e
       -0.30456206 0.22181863 -0.039227027 0.17722513
0000b0 40 d0 2a 3c cc 8a b2 be 0a b9 59 3e 9a 15 02 3e
       0.010425627 -0.3487152 0.21261993 0.12703553
0000c0 59 6c 2e 3e 17 14 77 be b3 b5 63 bd f1 8f de 3d
       0.17033519 -0.24128757 -0.055593204 0.108672984
0000d0 0b bd 28 bd cc 93 cc 3d 34 65 47 be 9a 8e a5 be
       -0.04119591 0.099891275 -0.194722 -0.3233536
0000e0 d5 dd 7d be d9 aa 97 be 10 9d d3 bd 46 5f 8d bd
       -0.24791653 -0.29622534 -0.10332692 -0.069029376
0000f0 bc 2b 2b bd 3b ea 40 be ea f8 0f bd 75 6a ec 3e
       -0.041789755 -0.18839352 -0.035149492 0.4617497
000100 85 75 99 bf 80 67 7d bf f0 06 c4 3e 9a 9a b3 be
       -1.1988989 -0.98986053 0.38286543 -0.3507889
000110 dc 11 cc be 64 bb 50 3d f5 59 3f bc 22 63 dd be
       -0.39857376 0.05095996 -0.011679162 -0.43239695
000120 5e 52 7e be 77 eb 8b be 78 aa 2d bf b6 75 97 bd
       -0.24836108 -0.27328083 -0.6783824 -0.073954985
000130 70 eb a8 be 64 96 3e be be d0 1f 3f d3 28 97 be
       -0.32992125 -0.18612057 0.6242789 -0.29523334
000140 21 23 8e b8 06 02 d6 be f1 7d 44 be f9 64 4e be
       -6.777631e-05 -0.4179842 -0.19188668 -0.20155706
000150 74 c5 53 be 97 bc cb bc dc d9 03 be ea 22 48 3e
       -0.20680791 -0.0248702 -0.12876076 0.19544569
000160 41 c7 0d be 07 d9 c6 bb 1b b7 95 be 6e a3 1a be
       -0.1384554 -0.006068352 -0.2924126 -0.15101406
000170 81 d4 78 bb 4c cf 8f be 33 90 c6 3d d2 73 c1 bd
       -0.003796846 -0.28087842 0.096954726 -0.09445919
000180 12 9b 2a 3b c6 c6 91 3d 38 00 77 bd c5 8b a3 be
       0.002603237 0.07117991 -0.060302943 -0.31942573
000190 10 dd d5 be 28 f8 53 be 79 ed 56 bd 1e 58 87 3f
       -0.4177022 -0.20700133 -0.052472565 1.0573766
0001a0 d4 51 04 bf 16 7e 3e bf 4c 16 9b 3f 13 76 05 3f
       -0.5168736 -0.7441114 1.211618 0.5213329
0001b0 66 b2 6c be fc 29 92 be 76 18 aa bf ba 82 21 40
       -0.23114929 -0.28547657 -1.3288715 2.523604
0001c0 86 9d c0 3e 00 4a ff 3f 32 95 3a 40 52 71 ba c0
       0.3762018 1.9944458 2.9153562 -5.826333
0001d0 83 67 c3 40 30 9c 37 c0 2a 61 61 40 5b 3b 74 3f
       6.1063857 -2.868908 3.5215554 0.9540307
0001e0 84 45 ac bd b7 2f 9c be 7e 4d 71 be 18 ee a3 bd
       -0.084116966 -0.30505154 -0.23564717 -0.08004397
0001f0 c3 21 32 be ad 90 26 be 26 32 a1 be b5 96 8f 3e
       -0.17395692 -0.16266127 -0.31483573 0.28044668
000200 06 01 18 be d8 6d 1d be 52 8e 2a bf da e6 9f 40
       -0.1484414 -0.15373933 -0.66623414 4.99693
000210 3f 04 c8 3d 89 f5 81 40 87 fc 0e c1 50 e3 ab 40
       0.09766435 4.0612226 -8.936652 5.371498
000220 45 fe 0b c1 3b 70 21 c1 be 67 10 c1 82 e7 b8 40
       -8.7495775 -10.0899 -9.025328 5.77826
000230 70 d9 51 be 40 2e c9 bc 60 e0 0b bd a4 fe c5 3d
       -0.20493102 -0.024558187 -0.034149528 0.096677095
000240 92 eb b8 bd eb da 9b 3e 2b fe 89 3e 88 7e f1 3d
       -0.090293065 0.3044046 0.26951727 0.11791712
000250 38 69 7d 3d 73 7b a0 3e 8a 1d ce bf a9 d4 97 3f
       0.061867923 0.31344184 -1.6102765 1.1861774
000260 a3 1a 2e be cb 70 c2 3f 95 c6 82 c0 c8 a9 c8 bd
       -0.17002349 1.5190672 -4.086741 -0.09798008
000270 f3 68 e3 3c f9 af a4 be d8 d3 42 bf 94 3f 67 3d
       0.027760005 -0.32165506 -0.761045 0.056457117
000280 32 fe 1c bd be 54 bf be d0 78 0c be 7b 2e b5 bc
       -0.038328357 -0.3736934 -0.13717961 -0.02211689
000290 9c ff 4b be 78 aa 70 3f 41 ea 2d bf 6a 65 73 3c
       -0.19921726 0.94010115 -0.6793557 0.014855722
0002a0 e0 0e b6 bd 76 4f 50 be f4 b2 f7 bc 73 ae 37 be
       -0.08889556 -0.20342812 -0.030236699 -0.17937641
0002b0 48 6d d5 be ff 1e 10 3d 2d 28 93 be f4 3e 49 bf
       -0.41684937 0.03518581 -0.2874159 -0.78611684
0002c0 94 6c 8e 3e 34 fd 47 3e c5 a6 2d bf 97 c8 80 be
       0.27817214 0.19530183 -0.67832595 -0.25153038
0002d0 08 6c af bd 27 13 bf be fe e7 84 3c 7e 64 90 3e
       -0.08565527 -0.373193 0.016223904 0.2820167
0002e0 b4 6c e5 3e 8e d0 c0 3c 76 4d 8e be 48 e1 b5 bd
       0.44809496 0.023536947 -0.27793473 -0.088808596
0002f0 60 2f 71 bd cc 9e af be b4 16 e6 be f3 c7 fa 3d
       -0.05888307 -0.3430084 -0.44939196 0.122451685
000300 50 58 a2 bd 25 fb 38 bf 39 61 cc be b3 b4 79 3f
       -0.079270005 -0.72258216 -0.39917925 0.9754135
000310 10 68 17 c0 29 88 d9 3d be 08 61 3e c6 76 f3 be
       -2.3657265 0.106216736 0.21975991 -0.47551554
000320 23 88 4b be 44 94 bf 3d a0 b7 59 be 94 bb d0 3d
       -0.19876151 0.09354451 -0.21261454 0.10192028
000330 9f 36 98 3e 57 ea a0 be b2 b2 82 be 02 5b 20 be
       0.29729173 -0.31428787 -0.2552696 -0.15659717
000340 6a 0d 69 3e 20 44 2d bc 10 3a a1 be 48 9a 6b bd
       0.22759023 -0.010575324 -0.3148961 -0.05752018
000350 86 aa e1 bd bb 76 89 3e 82 6b 14 be c0 45 3a bc
       -0.11018853 0.26848397 -0.14494136 -0.011369169
000360 6f 3e 29 be d2 a0 8d bd 60 0f a9 3c c0 58 7f 3d
       -0.16527723 -0.0691544 0.020637214 0.062340498
000370 8a a5 05 bb db ed 32 bf f3 77 cd be 3c df 21 bf
       -0.0020392858 -0.6989419 -0.40130576 -0.63231254
000380 dd ff c7 be 87 c0 96 be 29 cd 0f bf c8 21 79 3e
       -0.39062396 -0.29443762 -0.56172425 0.24329293
000390 bd 24 40 bd 41 4d 3b bf 2a d6 1f bc 8e 3b 68 bf
       -0.046910036 -0.73164755 -0.009755651 -0.90715873
0003a0 54 8c 7e be 38 b5 13 be 67 bd 6b be a3 05 08 3f
       -0.24858218 -0.14424598 -0.2302147 0.531336
0003b0 5f 79 83 bf e0 ae aa 3e b3 bb 5b 3e 84 ac 06 be
       -1.0271415 0.33336544 0.2145832 -0.13151747
0003c0 87 be 87 be 3f 84 40 bd d1 3b 55 bc b0 b5 a5 3e
       -0.26512548 -0.04700112 -0.01301475 0.3236518
0003d0 86 b5 ac 3d 73 cc d2 3e e5 a8 b4 be e2 38 fa bd
       0.0843306 0.41171607 -0.35285106 -0.12217881
0003e0 22 bd 71 3e b2 81 7c bd 52 c9 42 bd 1d b7 2a bf
       0.23607305 -0.061647125 -0.047555275 -0.6668566
0003f0 0f 0d 3e 3b e9 0b 7b 3e c4 1f de be 86 26 c0 bc
       0.0028999483 0.24516262 -0.4338361 -0.02345587

0.bias f4 [128]
000000 6c 01 87 bd cb 93 02 be c5 e8 0f be dd 8e 89 3e
       -0.06592068 -0.12751691 -0.14053638 0.2686681
000010 de 40 73 3e 34 52 8b be c7 7b dd 3d f6 d9 21 be
       0.23755214 -0.27211154 0.10814624 -0.15805802
000020 ff e9 03 3e 9e c2 cc be bc 11 92 be 78 64 22 3e
       0.12882231 -0.3999223 -0.28529155 0.15858638
000030 f8 52 0f 3e cb 06 10 40 c0 d3 27 3e 4c 63 54 be
       0.13996494 2.2504146 0.1638937 -0.20741004
000040 8a 84 72 3e fa 70 f4 be fc 3c cf be 6b 36 fb be
       0.23683372 -0.47742444 -0.40476215 -0.49064955
000050 c0 ea 9c be 43 f4 8e 3e c7 af 38 be 80 5d 9e 3d
       -0.3064785 0.27920732 -0.18035804 0.077326775
000060 b4 6e 16 3e 97 01 b4 be 52 b1 63 3a 8c d4 8a be
       0.14690667 -0.35157463 0.00086857856 -0.27115285
000070 65 07 07 bf 65 0c 23 40 50 2b c5 3c d3 9d 3a 3e
       -0.5274566 2.5476315 0.024068505 0.18224268
000080 70 3a 0e 40 29 01 b3 be 7e 38 dc 3f 74 81 7a 3b
       2.2223167 -0.34961823 1.720474 0.0038224133
000090 cd c8 d5 3d 91 e5 69 3e 4a 66 2f be 4c 09 a0 be
       0.1043869 0.22841479 -0.17128864 -0.31257093
0000a0 02 e4 11 bf 2a b9 c7 bd c6 fd 0e be 36 77 c5 bb
       -0.5698854 -0.09752114 -0.13963994 -0.006026174
0000b0 82 4a 07 be f7 85 4d 3e d8 34 af 3d d5 48 83 be
       -0.13212016 0.20070635 0.08555001 -0.25641504
0000c0 41 52 32 be 37 0a ca be 29 7e b9 c0 49 a7 71 3e
       -0.1741419 -0.39460918 -5.7966504 0.2359897
0000d0 50 27 f1 bc c7 a4 91 3e 76 09 b7 bd 78 db b9 3d
       -0.029437691 0.28446028 -0.089373514 0.090750635
0000e0 67 e2 c9 bd 2a e1 e0 bd 52 66 60 3e a6 40 a0 be
       -0.09857636 -0.10980447 0.21914032 -0.31299323
0000f0 d3 86 ea bd a3 5c b9 40 b8 b3 58 be 54 be ce 3e
       -0.11451497 5.792558 -0.21162307 0.40379584
000100 9e 95 0f bf 5c ba f1 3d c7 1e 90 be d2 10 2f be
       -0.5608767 0.11803123 -0.2814848 -0.1709626
000110 3c 11 ae be 8a 9e 22 bf 05 06 e3 be be a3 8a bd
       -0.33997524 -0.6352316 -0.4434053 -0.067695126
000120 85 4a 3f c0 c0 46 fa bd 56 ba 41 3e 49 34 ac be
       -2.9889233 -0.12220526 0.18918738 -0.3363364
000130 0f 08 dd 3d da d1 28 be e8 4c 4b be 15 ea 1f 3f
       0.10792553 -0.16486302 -0.19853556 0.62466556
000140 74 36 95 be 0f dc bb be 2a 6f 76 be 9f 27 86 be
       -0.29143107 -0.3669133 -0.24065843 -0.26202103
000150 86 f3 12 be 8c ed 9d be ed d7 99 3e 99 39 09 bc
       -0.1435071 -0.30845296 0.3004755 -0.008375549
000160 b2 80 69 be b8 5b 8d bd e2 a5 d1 be c2 da 03 c0
       -0.22803 -0.069022596 -0.4094687 -2.060227
000170 cb db 34 be 2d af b1 be b0 2e 36 3e 4b 47 5e bc
       -0.1766197 -0.3470396 0.17791247 -0.013566802
000180 e2 ad 1a be 48 c6 02 3f 83 19 00 c0 f5 40 59 be
       -0.15105394 0.51083803 -2.001557 -0.21216185
000190 ca 88 54 3e df 43 f3 be 00 08 d5 be b0 38 ae 3d
       0.20755306 -0.4751272 -0.41607666 0.08506906
0001a0 bf c9 30 bd 56 50 01 bf 3f 37 e5 bd ab dc 44 3e
       -0.04316115 -0.5051321 -0.11192178 0.19224803
0001b0 8d c8 98 be 40 5a a5 3c d5 e9 2a 3f 1c 52 a6 3d
       -0.29840508 0.020184636 0.6676305 0.0812113
0001c0 0a 39 89 be 83 b5 9d 3e f0 f6 c5 40 36 64 48 be
       -0.2680133 0.30802545 6.1863937 -0.19569477
0001d0 74 ef a0 be 10 ea 22 be 65 a2 9b 40 e9 46 0d 3e
       -0.31432688 -0.159096 4.8635736 0.13796581
0001e0 89 28 a5 3d 19 e3 0a be 10 a2 be 3c 83 1d 8f b9
       0.08064372 -0.13563193 0.023270637 -0.00027297073
0001f0 5f a0 29 be 15 eb cf be aa c9 ed bc 50 6c 63 be
       -0.16565083 -0.4060904 -0.029026825 -0.22209287

2.weight f4 [64, 128]
000000 40 4c b5 3b dd 4b 71 bd 1f 95 37 bd d9 ae af 3d
       0.0055327713 -0.05891024 -0.044819947 0.085782714
000010 34 f3 a6 bd 77 bb 86 bd ee 8a 8f bd a5 3d 8f 3d
       -0.08151856 -0.06578725 -0.070089206 0.0699418
000020 80 ba b5 3b 72 3c 33 3d 50 93 c6 3c 46 bc b8 be
       0.005545914 0.043758817 0.024240166 -0.3608114
000030 d8 8c 42 3c 04 b5 f4 be e8 1c f9 3c 72 ef 29 3d
       0.0118744 -0.47794354 0.030409291 0.04148812
000040 00 60 8f 39 08 a7 76 bd 00 eb 7e 3a c0 31 e1 ba
       0.0002734661 -0.060217887 0.0009724349 -0.0017180964
000050 87 84 0f bd a8 02 52 bc 14 a1 e9 bc 1a 88 0c be
       -0.035038497 -0.012818016 -0.02851919 -0.13723794
000060 03 a3 56 bd 6c f3 9d bd 68 1e e2 3c 40 fe 66 3b
       -0.052401554 -0.07712445 0.02760239 0.003524676
000070 b2 ec e6 3c 85 fb ad be d8 aa 8a bd 68 5a 9f bc
       0.028189037 -0.33980957 -0.06770867 -0.019452289
000080 9e fa 4e be d0 c5 ed 3b 72 88 2a 3d 5f b0 f4 bb
       -0.2021279 0.007256247 0.04163403 -0.007467314
000090 a3 7f 80 be 6d 14 50 be 09 23 8e bd b3 bc 2e 3e
       -0.2509738 -0.20320292 -0.06940276 0.1706417
0000a0 f2 07 4e bd 8b 2c b0 3d 3a 5e 30 3d c0 ab d5 3b
       -0.050300546 0.08602246 0.04305861 0.0065207183
0000b0 ec 07 9f bc 62 3a 57 3d 66 40 79 bd 9d ae a6 bd
       -0.019412957 0.052545913 -0.06085243 -0.081387736
0000c0 e0 12 07 3b f8 f7 8d bd b2 cb b5 be 28 bc 0d bc
       0.0020610616 -0.06932062 -0.3550697 -0.008650817
0000d0 34 d7 a0 bc c0 a8 bd bc 7e 86 44 3d 28 7e 79 bd
       -0.019633867 -0.023151755 0.047979824 -0.060911328
0000e0 14 24 1a be 0d e1 a3 3d 51 82 af bd 7a 8d 61 bd
       -0.15052825 0.080019094 -0.08569778 -0.055066563
0000f0 30 2c 89 bd 00 0d 9c be 03 c2 a4 bd 5d 10 d7 3d
       -0.06697881 -0.30478668 -0.08044817 0.10501168
000100 e8 4a 34 3c 90 66 27 bc d0 99 a5 bb 33 de 8b 3d
       0.011004187 -0.010217324 -0.0050537363 0.068294905
000110 60 f1 77 bd d6 db 88 bd 2e de 4a 3d e7 07 8c 3d
       -0.060532928 -0.066825554 0.049528293 0.06837445
000120 e3 6b ab be a8 3d 1d 3c 96 b7 49 3d e0 21 d2 3c
       -0.3348075 0.0095972195 0.049247347 0.025650918
000130 18 5c dc bc f9 32 3c bd 0c 8b 7c bd 10 50 00 bc
       -0.026899382 -0.04594705 -0.061656043 -0.007831588
000140 30 c0 89 3b cb 7f 83 3d 79 22 8f 3d 38 20 ad bc
       0.0042038187 0.06420859 0.06988997 -0.021133527
000150 77 50 b3 3d 99 b3 8f 3d e8 d0 61 bd 5f 78 82 bd
       0.08755582 0.070166774 -0.05513087 -0.06370615
000160 06 b6 13 bd ea 64 3e bd 6d c6 1b bd 5f 7d 9c be
       -0.036062263 -0.046482958 -0.03803103 -0.305644
000170 00 46 83 39 d5 b0 a2 bc 20 ef a8 bd 97 ff f1 bd
       0.0002503842 -0.01985971 -0.082487345 -0.11816328
000180 85 40 ad 3d f0 50 7e 3d 95 27 95 be 00 2a 77 bb
       0.08459572 0.062088907 -0.2913176 -0.0037714243
000190 bd cd b3 3d a0 b5 d1 bc 48 4d bf 3c c1 df 9f bd
       0.08779476 -0.0255993 0.02335228 -0.078063495
0001a0 fc 92 1b 3e 92 cd 0f 3d 00 77 f3 39 50 5c f5 bb
       0.15192789 0.035108157 0.00046437234 -0.007487811
0001b0 88 1b 37 3c 10 b0 3d 3c 02 ef 3d be 14 41 74 bd
       0.011175998 0.011577621 -0.18548205 -0.059632376
0001c0 74 09 8b 3c 80 f1 25 bb 7f 0b f9 be 85 78 90 3d
       0.016972281 -0.0025320947 -0.48641583 0.07054237
0001d0 87 cd b3 3d 80 02 c0 bc 25 05 7d be 9e 02 4d 3d
       0.087794356 -0.023438692 -0.24708994 0.050051324
0001e0 1e f6 6e 3d c0 12 88 bb 00 74 ac bd c9 14 2c bd
       0.058340184 -0.004152626 -0.08420563 -0.04201201
0001f0 7e ef 31 3d 2b 7d fa bd 4d b2 f9 3d 8b f9 97 3d
       0.04344129 -0.12230905 0.12192211 0.074206434
000200 16 62 78 3d 31 db a6 3b e9 67 ac bd d2 a2 6b 3d
       0.060640417 0.0050920476 -0.08418257 0.057528324
000210 88 dc 45 bd 5e 6d 0b be f7 c7 2d bd 50 fb 88 bd
       -0.048306018 -0.13615939 -0.04242703 -0.06688559
000220 6f 7d e5 bc be e6 49 3d 0b 30 d6 bd c8 76 03 3d
       -0.028013913 0.04929232 -0.10458382 0.0320957
000230 de 28 a0 bd 0f fa b0 bd 80 9a 92 3a 96 6c 10 be
       -0.07820295 -0.08641445 0.0011184961 -0.14103922
000240 9d b3 4e bd a5 7e 1a bd a9 25 0d be c6 ce 9f bd
       -0.05046426 -0.037718434 -0.13783897 -0.07803111
000250 ee cc 6f 3d dc ca 2b bd 0c 37 5e bd 97 1d 2c be
       0.058545046 -0.04194151 -0.054251716 -0.16808163
000260 b9 c6 99 3d fb 06 c3 bd 15 1a 0a bd f3 c0 9e 3c
       0.075086065 -0.09522816 -0.03371628 0.019379115
000270 2a 00 07 be e3 7e f1 bd c6 32 ed bc 42 76 cc bd
       -0.13183656 -0.1179178 -0.028954875 -0.099834934
000280 da 0d 10 bd 4f ce 92 3d d7 81 b6 3c b6 c4 5f bd
       -0.03516946 0.071682565 0.02227871 -0.054630958
000290 2c 3b 43 be ec ad a4 3c 04 d1 3f bd bb f5 f3 bd
       -0.19065541 0.020102464 -0.046830192 -0.11912104
0002a0 76 bd 0a be 38 32 85 3c 10 4b fc 3c 1f df cd 3c
       -0.13548836 0.016259298 0.030797511 0.025130806
0002b0 82 c0 85 bd 94 ef 06 bd da 37 41 bd 66 6f 05 be
       -0.065308586 -0.032943323 -0.047172405 -0.13030776
0002c0 ba 22 0e be b0 71 c3 bc ab 73 ca bd 1a 05 95 bb
       -0.13880435 -0.023857921 -0.09885343 -0.0045477273
0002d0 49 1c f8 bd da bd 6a 3d 07 60 98 3d 34 6c f8 3c
       -0.1211477 0.057309963 0.07440191 0.030325033
0002e0 99 ee 5c be eb a4 99 3d 60 33 4e 3c 5e 4e b3 bb
       -0.21575393 0.07502159 0.012585491 -0.0054719886
0002f0 03 6d 8e bd 81 84 48 bd d6 56 2f 3d 06 af 82 be
       -0.06954386 -0.04895449 0.042807423 -0.25524157
000300 c7 4a 0f be 33 a1 b4 bd c0 7f a1 bb 69 81 26 bd
       -0.13993369 -0.08819809 -0.004928559 -0.04065076
000310 be d2 9e bd e1 84 99 3b bc 59 d9 bc da a2 57 bd
       -0.0775504 0.00468503 -0.026532046 -0.05264554
000320 b5 33 17 be f2 25 6a 3d a0 5f 64 3c 65 6f ab bb
       -0.14765818 0.057165094 0.013938814 -0.005231785
000330 0f e5 0f bd ea d8 23 3d 62 10 35 3d c1 dd 8d bd
       -0.035130557 0.040001787 0.044205077 -0.06927062
000340 50 e8 65 bc d8 01 ef bc 20 89 73 bb 64 dd 44 bd
       -0.014032438 -0.029175684 -0.003716059 -0.048062697
000350 69 60 84 bd 3b eb ac 3d f4 2b a7 bc b5 6c c2 bc
       -0.06463701 0.08443304 -0.0204067 -0.023733476
000360 d4 53 0b bd f0 f1 bd bb 18 b1 c0 bc 0e 33 35 be
       -0.03401549 -0.0057966635 -0.023521945 -0.17695257
000370 be 2c cc bb a2 c5 91 bd 00 a2 ec 3b 35 86 8b 3b
       -0.0062309196 -0.071177736 0.0072214603 0.004257942
000380 4c a8 8b bd 82 77 d2 bd ae d3 33 bb 85 6c bb bd
       -0.068192095 -0.102767006 -0.0027439403 -0.09151558
000390 58 63 51 bc 37 5f d8 bd 83 ca 83 bd 68 1b 07 3d
       -0.012780033 -0.10565036 -0.064351104 0.03298512
0003a0 18 2d 9b 3b ad 0e c2 bd b6 c8 e7 bc 48 3a e5 3c
       0.0047356 -0.094754554 -0.028293949 0.027981892
0003b0 52 ba 09 bd e8 a7 dc 3c e0 d6 e3 bd 96 94 a6 bd
       -0.033624955 0.026935533 -0.111249685 -0.08133809
0003c0 00 b9 5c 3c e0 e7 35 3c c6 bb 0b be 5c e6 fe bd
       0.013471842 0.011102647 -0.13645849 -0.12446281
0003d0 ad 3f a9 3d 2c 31 6f bd d3 06 27 be 0f 65 c4 bd
       0.08264098 -0.058396503 -0.16311197 -0.09589588
0003e0 bd de 02 be 0b d2 4b bd 67 cf 99 bd 31 52 9b bd
       -0.1278028 -0.04976086 -0.07510262 -0.07584036
0003f0 40 93 8b bd ff 71 eb bd a2 ff 0d be 4b f1 56 bd
       -0.06815195 -0.114963524 -0.13867047 -0.05247621

2.bias f4 [64]
000000 1f 01 78 bf 81 d4 67 be c7 27 6a be 13 31 87 be
       -0.9687671 -0.22639658 -0.22866736 -0.26404628
000010 1f fb 22 bf 9f 0e 8f bd 0f 48 1e bf 8b 8d 75 be
       -0.6366443 -0.069852106 -0.618287 -0.23979776
000020 a4 82 f1 be f5 2f f6 be ff fc ea bd 54 f9 a1 be
       -0.47169983 -0.48083463 -0.114740364 -0.31635535
000030 33 ba 82 be ef d3 20 be 39 c9 3d be 3a 7c eb be
       -0.25532684 -0.15705846 -0.18533792 -0.45993215
000040 4f 20 2a be 8e 17 06 bf ba b2 db be 5e dd 6f be
       -0.16613887 -0.5237969 -0.42909795 -0.23424289
000050 12 90 39 be 88 32 4d bf e8 d2 ae be de ff bb bf
       -0.18121365 -0.8015523 -0.34145284 -1.468746
000060 e5 02 51 bf 44 3a 30 be f6 4f e3 be 75 67 8c bf
       -0.8164504 -0.17209727 -0.44396943 -1.0969073
000070 bf 9e 9a be e5 de 1b be 44 3a 17 bd 0d ef 89 be
       -0.3019924 -0.15221746 -0.0369208 -0.26940194
000080 23 37 02 bf 32 f4 32 bf 6f f7 91 be 1e b3 79 bf
       -0.5086538 -0.6990386 -0.2850909 -0.97538936
000090 6b 42 4b be 0d 02 82 be 23 7c ed be d5 5b b8 be
       -0.19849555 -0.2539219 -0.4638377 -0.36007562
0000a0 7d 75 24 be 3c 6f 22 bf 57 07 db bc 3c 86 37 bf
       -0.16060443 -0.6345098 -0.026736898 -0.716892
0000b0 f0 d6 10 bf 7d 64 27 bf 63 00 4a bc 3f 79 69 be
       -0.5657797 -0.6538771 -0.012329194 -0.22800158
0000c0 4c 6c 11 bf 86 3b f1 be bf 85 5d 3f 86 81 ed be
       -0.5680587 -0.47115725 0.86532205 -0.4638788
0000d0 94 19 96 be 43 35 94 be 19 9f 4b be ca b4 1c bf
       -0.2931639 -0.28946885 -0.1988491 -0.6121336
0000e0 c9 8c 91 be fd bc b7 be 85 a7 68 be 5d ac c6 bf
       -0.28427723 -0.35886374 -0.22720154 -1.5521351
0000f0 30 f3 76 be 13 80 ae be 0f 3d 1b be 42 84 09 bf
       -0.24116206 -0.34082088 -0.15160011 -0.53717434

4.weight f4 [32, 64]
000000 d8 7d 9d bc e0 26 4a bc e0 d7 fb 3c 2e 96 ce bd
       -0.019225046 -0.01233837 0.030742586 -0.10087238
000010 e4 3b c0 bd 98 96 e4 bc 70 65 e1 bc c8 f6 2a bd
       -0.09386423 -0.02790384 -0.02751419 -0.041739255
000020 b0 12 bf 3d 2c c4 ae 3d a4 56 8b bd fe bc e9 3d
       0.09329736 0.085335106 -0.06803635 0.114130005
000030 4c 98 c3 3d 30 e9 1d bd 8c 85 5c bd 58 d0 8e 3c
       0.09550533 -0.038552463 -0.053838298 0.01743333
000040 28 59 8e bd 3c d5 3b bd 3c a1 2a bd 96 04 ce 3d
       -0.06950599 -0.045857653 -0.04165767 0.100594684
000050 ec 65 15 bd 40 f7 76 3c 92 3a b2 bd 3f 10 ef bb
       -0.036474153 0.015073597 -0.08702578 -0.007295638
000060 60 1a 1d bc fc 47 8d 3d 66 4b 84 bd 6e c7 6e be
       -0.009588808 0.068984956 -0.064596936 -0.23318264
000070 08 f9 19 3d 74 8c 9c bd 28 7f 72 3d 3c 93 43 bd
       0.03759101 -0.07643977 0.059203297 -0.047747836
000080 f0 07 b1 bc 40 6d 85 3d 10 d3 90 bd be e3 90 3d
       -0.02161023 0.065149784 -0.07071507 0.070746884
000090 41 74 7a be ac d0 c7 bd 70 5a 35 bd b3 ac 91 be
       -0.2445841 -0.09756598 -0.0442757 -0.28452072
0000a0 b6 79 ee bd 3a 58 ad 3d 0a 59 b3 3d 20 05 a0 3d
       -0.11644308 0.084640935 0.08757217 0.078134775
0000b0 d6 e3 d2 bd 58 21 e7 bd 18 3a cb bd 38 0b 9d bd
       -0.102973625 -0.11285657 -0.0992319 -0.076681554
0000c0 8b 91 c6 bd d4 dc 74 3d a2 82 5d be f4 7b 99 3d
       -0.09695729 0.05978091 -0.21631864 0.07494345
0000d0 a8 16 96 bd 46 67 e4 bd 90 c2 ab 3d 90 fa 79 bc
       -0.0732854 -0.1115251 0.08386719 -0.015257493
0000e0 2e 78 ff 3d cc f5 77 3d 70 0b e7 3d 4b c8 b3 be
       0.12474094 0.060537145 0.112814784 -0.3511375
0000f0 28 9e f4 bd a0 10 05 bd 90 d0 36 bc 4a a9 fe 3d
       -0.119442284 -0.032486558 -0.011158124 0.12434633
000100 86 bc 7c 3b e5 af 19 3e d3 06 fd 3c 1e 33 8f bc
       0.0038564517 0.15008505 0.030887043 -0.01748043
000110 eb c0 b2 3d 61 78 a6 bd bb 2e 7d bb fd ac 9f 3d
       0.087282024 -0.08128429 -0.003863259 0.07796667
000120 39 cb e1 bc 91 46 f3 3d 18 70 0e 3e 7e 95 88 3d
       -0.027562724 0.11878694 0.13909948 0.06669138
000130 01 fa ce 3c 19 aa ce 3e f1 74 0a 3e f1 27 c7 bc
       0.025265696 0.4036415 0.13521172 -0.024311038
000140 22 9e 0f 3e 43 41 69 bc 36 d9 01 be 7f 18 19 3d
       0.14025167 -0.014236751 -0.12680516 0.037376877
000150 94 bc 9e 3c 2c 48 87 bd 73 9b f4 bb 32 f4 90 be
       0.01937703 -0.066055626 -0.00746482 -0.28311306
000160 0e 3a 49 bd 6c 7a 8c bd 00 96 3f bb 63 aa 09 be
       -0.04912763 -0.068592876 -0.0029233694 -0.13443904
000170 e5 e3 93 bb 2d 22 80 3d 24 18 04 be 3d c6 82 bc
       -0.004513251 0.062565185 -0.12899834 -0.015963668
000180 3d 9f 01 3e 07 8b 0b be 43 cb 8d bd 1b c7 ba 3c
       0.12658401 -0.13627253 -0.06923535 0.022800019
000190 97 3b ce bd a9 7a 92 3c 78 65 92 3d be d0 07 be
       -0.100699596 0.017880755 0.0714826 -0.13263223
0001a0 d9 df 7a 3d 23 7c 97 3a e0 84 f1 bc 04 cf a5 bd
       0.061248634 0.0011557381 -0.029482305 -0.08096126
0001b0 29 91 99 be 14 80 cc 3e b8 bc 32 3e 94 bd 80 3d
       -0.2999356 0.39941466 0.17454803 0.06286159
0001c0 90 4f 1b 3d 86 06 74 3d bd a7 ad bd 3d e8 db bc
       0.037917674 0.059576534 -0.08479259 -0.026844138
0001d0 aa 43 cf bd 4a b1 fd bc d6 85 0b bf 80 55 f4 bc
       -0.10120328 -0.030968327 -0.5450109 -0.029825926
0001e0 1a 6c d6 3d b4 64 d5 3d d6 ba 92 3d 0c b3 96 be
       0.104698375 0.10419598 0.071645424 -0.29433477
0001f0 34 4e 2a 3e ce 32 41 3d 40 78 2a bc 05 ba 18 bd
       0.16631395 0.04716759 -0.010404646 -0.037286777
000200 c9 f7 bd 3d 10 c3 71 3d fe 73 bc 3d 0c 6f 05 3d
       0.09275777 0.059023917 0.09201811 0.032576606
000210 5c 69 4f bd 28 ee bb bc 00 27 cb bb 40 38 66 3c
       -0.050637588 -0.02294071 -0.0061997175 0.014051497
000220 d0 64 d6 bd 08 37 12 bd 08 69 2f 3d c8 6f 16 3d
       -0.10468447 -0.035697013 0.042824775 0.036727697
000230 ce 36 84 bd 40 f2 2b 3c 56 25 a1 bd 08 a0 c1 bd
       -0.06455766 0.010494769 -0.078684494 -0.09454352
000240 9a 75 a7 bd 90 86 4c bc 30 8b 61 bd 26 d3 91 3d
       -0.081767276 -0.012483254 -0.05506438 0.071203515
000250 1b a4 19 3e 28 b8 8d 3c 60 04 34 bc 64 2f 20 be
       0.15004008 0.017299727 -0.010987371 -0.15643078
000260 bc 65 c1 bd 80 99 ad 3a d0 7c 28 bc 05 0f c7 bd
       -0.094432324 0.0013244599 -0.010283664 -0.097196616
000270 bc da a6 bd a2 21 1a 3e b1 ef 29 be d3 43 b8 bd
       -0.08147189 0.15051892 -0.16595341 -0.089973114
000280 74 62 77 3d e0 ee e1 3d 5c 94 00 3d 0c c5 d8 bd
       0.060396627 0.1103189 0.031391487 -0.10584459
000290 02 f7 ae bd 18 55 7a bd 48 dd ff 3d 35 17 0c be
       -0.08543207 -0.061116308 0.12493378 -0.13680728
0002a0 9b fb 06 3d f8 e8 44 bd 48 ba ca 3c 40 3a 4c 3d
       0.032954793 -0.04807374 0.024747029 0.04986024
0002b0 6e 1d 52 be 63 32 04 be 20 91 96 3b a0 e2 f8 3b
       -0.20519039 -0.12909846 0.004594937 0.007595375
0002c0 80 42 c9 bd c4 b4 a0 3d ea bd 9b be d0 ab 54 3c
       -0.09827137 0.07846978 -0.3041833 0.012980416
0002d0 a8 19 8d 3c 36 6c 5e 3d 93 9e 22 3d ae db 99 bd
       0.017224148 0.054302417 0.03970201 -0.07512604
0002e0 82 f0 d5 3d c2 ed 81 bd 24 95 f4 bd 8c b8 a0 bd
       0.10446264 -0.06344177 -0.11942509 -0.078476995
0002f0 64 56 94 3d c8 a5 4d bd 28 fa cd 3d bc 9d ca bd
       0.0724304 -0.05020693 0.10057479 -0.09893367
000300 6c d6 d9 3c 82 15 ef 3c be 40 77 3d 60 65 fc 3d
       0.026591502 0.02918506 0.060364477 0.12324023
000310 ca c9 cc bc 1e 37 91 3d 20 77 cf 3b fd 6e 15 3e
       -0.024998564 0.07090591 0.0063313395 0.1459312
000320 e6 76 94 bd 7a 5c 70 3d b8 05 05 3e 6e ac 49 be
       -0.072492406 0.058681943 0.12990463 -0.19694683
000330 6a a2 d6 bd d9 32 3c 3e d6 b7 0d 3e 1f 5b 80 3d
       -0.10480197 0.18378772 0.13839659 0.0626738
000340 0e f7 21 3d 97 cf 4a bc 93 59 23 be 0d 5c 16 3c
       0.03954225 -0.012378595 -0.15952139 0.00917722
000350 20 be fa bd 00 4c 93 3b 15 f7 23 3d 54 fa 44 be
       -0.12243295 0.004495144 0.040030558 -0.19236118
000360 48 15 fe be 61 ba 99 bc 9a 60 8e bd 17 fc c2 bd
       -0.4962561 -0.01876563 -0.06952019 -0.095207386
000370 a5 18 82 3d 2e 34 83 3d 6c 52 7e bd f3 39 27 3d
       0.06352357 0.06406437 -0.062090322 0.04082675
000380 8e 72 fb 3c 65 8c 03 be b0 5b 5f bd 64 82 54 3d
       0.030694272 -0.12846525 -0.0545308 0.051882163
000390 2e 77 0a 3e 46 0f 09 bd 0d ba 50 be ac f9 33 bd
       0.13522026 -0.03346183 -0.20383473 -0.043939278
0003a0 32 fb 2b 3b 99 17 16 3d c5 b6 a4 bd 1a 79 09 3d
       0.0026242253 0.0366436 -0.08042673 0.033562757
0003b0 28 ec 5d be 01 d0 bc bd 43 85 cb 3d 40 de 96 bd
       -0.21672118 -0.09219361 0.09937527 -0.073666096
0003c0 ad be b2 bb c6 ea 99 bc cc e1 97 be ea e7 ec 3d
       -0.005454859 -0.018788707 -0.29664457 0.115676716
0003d0 39 78 9e 3d 4b d5 38 be 1c 87 49 be 90 35 1f be
       0.077377744 -0.18050115 -0.19680446 -0.15547776
0003e0 ba 41 3b 3b ba f8 96 3d be 7c 09 be 3b a5 a0 be
       0.0028573112 0.073716596 -0.13426492 -0.3137606
0003f0 6d d0 2b 3e 3b 50 9a bc 25 ae 0e 3c c9 80 09 3c
       0.16778727 -0.018837085 0.0087085115 0.008392521

4.bias f4 [32]
000000 c3 a6 22 bf 85 95 12 bf 8a 0a 97 be 40 a7 26 bf
       -0.6353571 -0.572594 -0.29500228 -0.65098953
000010 ed 48 c6 be 56 92 89 be 7e 08 0f bf 1b ec 0b bf
       -0.38727513 -0.26869458 -0.55872333 -0.54657143
000020 c3 f2 19 40 98 29 96 be f2 7b f3 be 7a 00 46 bf
       2.405442 -0.2932861 -0.475555 -0.7734448
000030 1c be bb be 18 8e c7 be ef 88 e2 bc 21 1c 4a bd
       -0.3666848 -0.38975596 -0.027653186 -0.049343232
000040 1a 3e 09 bf 41 4e 18 bf f3 b7 57 be dd a7 b9 be
       -0.53610384 -0.59494406 -0.21066265 -0.36260882
000050 78 7f f1 3e cf bd d7 bd 4b e9 c9 be cf 28 ca be
       0.47167563 -0.1053425 -0.394358 -0.3948426
000060 a1 a5 94 be c4 bf 5f bf 2a 7c 2e bf 1a fd 02 bf
       -0.29032615 -0.87401986 -0.6815821 -0.5116745
000070 b8 7e 0e bf 94 c0 08 bf 29 d2 14 bf cb 50 2c bf
       -0.5566211 -0.5341885 -0.5813318 -0.6731078

6.weight f4 [2, 32]
000000 bc e3 83 3c 31 14 a1 3e 60 a1 14 bd 9c 7b 43 bd
       0.016099803 0.31460717 -0.03628671 -0.047725305
000010 1e f5 ab 3e 9f 57 a5 bd 98 b1 e1 3e f5 af 7d 3e
       0.33585447 -0.08073353 0.44080806 0.24774154
000020 21 91 94 be 6e a7 22 3c 55 df 47 3e e1 4a a5 3c
       -0.29016975 0.009927614 0.19518788 0.020177307
000030 d5 90 6b 3e 9c ca ab bd 0b 47 e2 3e e8 76 05 3e
       0.23004468 -0.08388254 0.44194826 0.1303364
000040 79 41 e0 3d 71 e4 47 3e 42 ec 9f bd b5 a7 4e be
       0.10949988 0.19520737 -0.078087345 -0.20181163
000050 5c 58 b6 be f9 02 fb bc ce 1f 61 3e 64 2a 95 3e
       -0.35614288 -0.030641066 0.21984789 0.29133904
000060 4b 5b 8b 3c 35 a9 46 3e 7c e2 db bd 69 fc 62 3e
       0.017011305 0.19400485 -0.10736558 0.221666
000070 4f a0 93 3e a6 9c 48 3e 62 8e 4d be ed f1 80 be
       0.28833243 0.19591007 -0.20073846 -0.25184575
000080 18 9c 2b be 86 14 93 be 80 62 0e 3d 67 fd 63 bd
       -0.16758764 -0.28726596 0.034761906 -0.055661585
000090 2f 17 ac be b5 1d 83 3d cd 8f d7 be 34 3c b3 be
       -0.33611438 0.064021505 -0.421019 -0.3500687
0000a0 21 91 94 3e 01 79 d7 bd bc cf 49 be fa fc 11 bd
       0.29016975 -0.105211265 -0.1970815 -0.035641648
0000b0 82 07 6e be 12 8e 4e bd b7 09 e9 be 87 30 90 bd
       -0.23245052 -0.050428458 -0.45515224 -0.07040506
0000c0 bf 15 e0 bd fb 57 70 be 52 c4 36 3d 74 27 95 3d
       -0.10941648 -0.23471062 0.04462082 0.07282916
0000d0 55 58 b6 3e eb cb a3 3c 34 ef 68 be 27 83 9a be
       0.35614267 0.019994697 -0.22747499 -0.30178186
0000e0 f9 89 fd bb 51 36 84 be 91 d1 56 3d 78 4c 55 be
       -0.007737395 -0.2582269 0.05244595 -0.20829952
0000f0 31 06 56 be 8b 29 71 be de 42 46 3e 04 6f ba bd
       -0.209008 -0.23551004 0.19361445 -0.09103206

6.bias f4 [2]
000000 0a 08 61 3f b5 bf f7 3d
       0.8790289 0.12097112

exp_avg f4 [128, 10]
000000 00 00 00 00 00 00 00 00 00 00 00 00 00 00 00 00
       0.0 0.0 0.0 0.0
000010 00 00 00 00 00 00 00 00 00 00 00 00 00 00 00 00
       0.0 0.0 0.0 0.0
000020 00 00 00 00 00 00 00 00 00 00 00 00 00 00 00 00
       0.0 0.0 0.0 0.0
000030 00 00 00 00 00 00 00 00 00 00 00 00 00 00 00 00
       0.0 0.0 0.0 0.0
000040 00 00 00 00 00 00 00 00 00 00 00 00 00 00 00 00
       0.0 0.0 0.0 0.0
000050 00 00 00 00 00 00 00 00 00 00 00 00 00 00 00 00
       0.0 0.0 0.0 0.0
000060 00 00 00 00 00 00 00 00 00 00 00 00 00 00 00 00
       0.0 0.0 0.0 0.0
000070 00 00 00 00 00 00 00 00 00 00 00 00 00 00 00 00
       0.0 0.0 0.0 0.0
000080 00 00 00 00 00 00 00 00 00 00 00 00 00 00 00 00
       0.0 0.0 0.0 0.0
000090 00 00 00 00 00 00 00 00 00 00 00 00 00 00 00 00
       0.0 0.0 0.0 0.0
0000a0 00 00 00 00 00 00 00 00 00 00 00 00 00 00 00 00
       0.0 0.0 0.0 0.0
0000b0 00 00 00 00 00 00 00 00 00 00 00 00 00 00 00 00
       0.0 0.0 0.0 0.0
0000c0 00 00 00 00 00 00 00 00 00 00 00 00 00 00 00 00
       0.0 0.0 0.0 0.0
0000d0 00 00 00 00 00 00 00 00 00 00 00 00 00 00 00 00
       0.0 0.0 0.0 0.0
0000e0 00 00 00 00 00 00 00 00 00 00 00 00 00 00 00 00
       0.0 0.0 0.0 0.0
0000f0 00 00 00 00 00 00 00 00 00 00 00 00 00 00 00 00
       0.0 0.0 0.0 0.0
000100 00 00 00 00 00 00 00 00 00 00 00 00 00 00 00 00
       0.0 0.0 0.0 0.0
000110 00 00 00 00 00 00 00 00 00 00 00 00 00 00 00 00
       0.0 0.0 0.0 0.0
000120 00 00 00 00 00 00 00 00 00 00 00 00 00 00 00 00
       0.0 0.0 0.0 0.0
000130 00 00 00 00 00 00 00 00 00 00 00 00 00 00 00 00
       0.0 0.0 0.0 0.0
000140 00 00 00 00 00 00 00 00 00 00 00 00 00 00 00 00
       0.0 0.0 0.0 0.0
000150 00 00 00 00 00 00 00 00 00 00 00 00 00 00 00 00
       0.0 0.0 0.0 0.0
000160 00 00 00 00 00 00 00 00 00 00 00 00 00 00 00 00
       0.0 0.0 0.0 0.0
000170 00 00 00 00 00 00 00 00 00 00 00 00 00 00 00 00
       0.0 0.0 0.0 0.0
000180 00 00 00 00 00 00 00 00 00 00 00 00 00 00 00 00
       0.0 0.0 0.0 0.0
000190 00 00 00 00 00 00 00 00 00 00 00 00 00 00 00 00
       0.0 0.0 0.0 0.0
0001a0 00 00 00 00 00 00 00 00 00 00 00 00 00 00 00 00
       0.0 0.0 0.0 0.0
0001b0 00 00 00 00 00 00 00 00 60 41 4c 38 7d 41 4c 38
       0.0 0.0 4.8698275e-05 4.869838e-05
0001c0 da 46 dd 39 04 00 00 80 04 00 00 80 ac 2b 88 37
       0.00042205193 -6e-45 -6e-45 1.62328e-05
0001d0 33 b7 a1 ad 04 00 00 00 00 00 00 00 a5 2b 88 37
       -1.8384938e-11 6e-45 0.0 1.6232787e-05
0001e0 00 00 00 00 00 00 00 00 00 00 00 00 00 00 00 00
       0.0 0.0 0.0 0.0
0001f0 00 00 00 00 00 00 00 00 00 00 00 00 00 00 00 00
       0.0 0.0 0.0 0.0
000200 00 00 00 00 00 00 00 00 e4 da 1d 39 6b dd 1d 39
       0.0 0.0 0.0001505423 0.00015055171
000210 09 05 ab 3a 6e 13 7a af 5f 03 00 80 98 7c 52 38
       0.0013047765 -2.274427e-10 -1.21e-42 5.018394e-05
000220 9b 43 86 ae 04 00 00 00 04 00 00 00 86 7c 52 38
       -6.1056236e-11 6e-45 6e-45 5.0183873e-05
000230 00 00 00 00 00 00 00 00 00 00 00 00 00 00 00 00
       0.0 0.0 0.0 0.0
000240 00 00 00 00 00 00 00 00 00 00 00 00 00 00 00 00
       0.0 0.0 0.0 0.0
000250 00 00 00 00 00 00 00 00 04 00 00 00 04 00 00 00
       0.0 0.0 6e-45 6e-45
000260 04 00 00 00 00 00 00 00 00 00 00 00 04 00 00 80
       6e-45 0.0 0.0 -6e-45
000270 04 00 00 00 00 00 00 00 00 00 00 00 04 00 00 00
       6e-45 0.0 0.0 6e-45
000280 00 00 00 00 00 00 00 00 00 00 00 00 00 00 00 00
       0.0 0.0 0.0 0.0
000290 00 00 00 00 00 00 00 00 00 00 00 00 00 00 00 00
       0.0 0.0 0.0 0.0
0002a0 00 00 00 00 00 00 00 00 00 00 00 00 00 00 00 00
       0.0 0.0 0.0 0.0
0002b0 00 00 00 00 00 00 00 00 00 00 00 00 00 00 00 00
       0.0 0.0 0.0 0.0
0002c0 00 00 00 00 00 00 00 00 00 00 00 00 00 00 00 00
       0.0 0.0 0.0 0.0
0002d0 00 00 00 00 00 00 00 00 00 00 00 00 00 00 00 00
       0.0 0.0 0.0 0.0
0002e0 00 00 00 00 00 00 00 00 00 00 00 00 00 00 00 00
       0.0 0.0 0.0 0.0
0002f0 00 00 00 00 00 00 00 00 00 00 00 00 00 00 00 00
       0.0 0.0 0.0 0.0
000300 00 00 00 00 00 00 00 00 00 00 00 00 00 00 00 00
       0.0 0.0 0.0 0.0
000310 00 00 00 00 00 00 00 00 00 00 00 00 00 00 00 00
       0.0 0.0 0.0 0.0
000320 00 00 00 00 00 00 00 00 00 00 00 00 00 00 00 00
       0.0 0.0 0.0 0.0
000330 00 00 00 00 00 00 00 00 00 00 00 00 00 00 00 00
       0.0 0.0 0.0 0.0
000340 00 00 00 00 00 00 00 00 00 00 00 00 00 00 00 00
       0.0 0.0 0.0 0.0
000350 00 00 00 00 00 00 00 00 00 00 00 00 00 00 00 00
       0.0 0.0 0.0 0.0
000360 00 00 00 00 00 00 00 00 00 00 00 00 00 00 00 00
       0.0 0.0 0.0 0.0
000370 00 00 00 00 00 00 00 00 00 00 00 00 00 00 00 00
       0.0 0.0 0.0 0.0
000380 00 00 00 00 00 00 00 00 00 00 00 00 00 00 00 00
       0.0 0.0 0.0 0.0
000390 00 00 00 00 00 00 00 00 00 00 00 00 00 00 00 00
       0.0 0.0 0.0 0.0
0003a0 00 00 00 00 00 00 00 00 00 00 00 00 00 00 00 00
       0.0 0.0 0.0 0.0
0003b0 00 00 00 00 00 00 00 00 00 00 00 00 00 00 00 00
       0.0 0.0 0.0 0.0
0003c0 00 00 00 00 00 00 00 00 00 00 00 00 00 00 00 00
       0.0 0.0 0.0 0.0
0003d0 00 00 00 00 00 00 00 00 00 00 00 00 00 00 00 00
       0.0 0.0 0.0 0.0
0003e0 00 00 00 00 00 00 00 00 00 00 00 00 00 00 00 00
       0.0 0.0 0.0 0.0
0003f0 00 00 00 00 00 00 00 00 00 00 00 00 00 00 00 00
       0.0 0.0 0.0 0.0

exp_avg_sq f4 [128, 10]
000000 00 00 00 00 00 00 00 00 00 00 00 00 00 00 00 00
       0.0 0.0 0.0 0.0
000010 00 00 00 00 00 00 00 00 00 00 00 00 00 00 00 00
       0.0 0.0 0.0 0.0
000020 00 00 00 00 00 00 00 00 00 00 00 00 00 00 00 00
       0.0 0.0 0.0 0.0
000030 00 00 00 00 00 00 00 00 00 00 00 00 00 00 00 00
       0.0 0.0 0.0 0.0
000040 00 00 00 00 00 00 00 00 00 00 00 00 00 00 00 00
       0.0 0.0 0.0 0.0
000050 00 00 00 00 00 00 00 00 00 00 00 00 00 00 00 00
       0.0 0.0 0.0 0.0
000060 00 00 00 00 00 00 00 00 00 00 00 00 00 00 00 00
       0.0 0.0 0.0 0.0
000070 00 00 00 00 00 00 00 00 00 00 00 00 00 00 00 00
       0.0 0.0 0.0 0.0
000080 00 00 00 00 00 00 00 00 00 00 00 00 00 00 00 00
       0.0 0.0 0.0 0.0
000090 00 00 00 00 00 00 00 00 00 00 00 00 00 00 00 00
       0.0 0.0 0.0 0.0
0000a0 00 00 00 00 00 00 00 00 00 00 00 00 00 00 00 00
       0.0 0.0 0.0 0.0
0000b0 00 00 00 00 00 00 00 00 00 00 00 00 00 00 00 00
       0.0 0.0 0.0 0.0
0000c0 00 00 00 00 00 00 00 00 00 00 00 00 00 00 00 00
       0.0 0.0 0.0 0.0
0000d0 00 00 00 00 00 00 00 00 00 00 00 00 00 00 00 00
       0.0 0.0 0.0 0.0
0000e0 00 00 00 00 00 00 00 00 00 00 00 00 00 00 00 00
       0.0 0.0 0.0 0.0
0000f0 00 00 00 00 00 00 00 00 00 00 00 00 00 00 00 00
       0.0 0.0 0.0 0.0
000100 00 00 00 00 00 00 00 00 00 00 00 00 00 00 00 00
       0.0 0.0 0.0 0.0
000110 00 00 00 00 00 00 00 00 00 00 00 00 00 00 00 00
       0.0 0.0 0.0 0.0
000120 00 00 00 00 00 00 00 00 00 00 00 00 00 00 00 00
       0.0 0.0 0.0 0.0
000130 00 00 00 00 00 00 00 00 00 00 00 00 00 00 00 00
       0.0 0.0 0.0 0.0
000140 00 00 00 00 00 00 00 00 00 00 00 00 00 00 00 00
       0.0 0.0 0.0 0.0
000150 00 00 00 00 00 00 00 00 00 00 00 00 00 00 00 00
       0.0 0.0 0.0 0.0
000160 00 00 00 00 00 00 00 00 00 00 00 00 00 00 00 00
       0.0 0.0 0.0 0.0
000170 00 00 00 00 00 00 00 00 00 00 00 00 00 00 00 00
       0.0 0.0 0.0 0.0
000180 00 00 00 00 00 00 00 00 00 00 00 00 00 00 00 00
       0.0 0.0 0.0 0.0
000190 00 00 00 00 00 00 00 00 00 00 00 00 00 00 00 00
       0.0 0.0 0.0 0.0
0001a0 00 00 00 00 00 00 00 00 00 00 00 00 00 00 00 00
       0.0 0.0 0.0 0.0
0001b0 00 00 00 00 00 00 00 00 2b 1b 85 37 d1 d9 c7 34
       0.0 0.0 1.5867487e-05 3.722512e-07
0001c0 c4 d2 64 39 b5 5e bd 2f 42 b0 12 32 52 5e 86 33
       0.00021822291 3.4446193e-10 8.538395e-09 6.257018e-08
0001d0 e0 e6 d2 32 ff d7 4d 2c 00 00 00 00 6b 16 bb 33
       2.4552207e-08 2.9252154e-12 0.0 8.711944e-08
0001e0 00 00 00 00 00 00 00 00 00 00 00 00 00 00 00 00
       0.0 0.0 0.0 0.0
0001f0 00 00 00 00 00 00 00 00 00 00 00 00 00 00 00 00
       0.0 0.0 0.0 0.0
000200 00 00 00 00 00 00 00 00 a8 88 07 3c 93 e3 06 38
       0.0 0.0 0.0082723275 3.2160035e-05
000210 dd 86 ec 3b e2 b5 db 36 77 aa c7 33 39 06 32 36
       0.0072182254 6.5478825e-06 9.297667e-08 2.652769e-06
000220 97 1d 5f 36 3d 7e ab 31 28 82 26 32 d3 13 c8 36
       3.3246813e-06 4.9911066e-09 9.692066e-09 5.9627723e-06
000230 00 00 00 00 00 00 00 00 00 00 00 00 00 00 00 00
       0.0 0.0 0.0 0.0
000240 00 00 00 00 00 00 00 00 00 00 00 00 00 00 00 00
       0.0 0.0 0.0 0.0
000250 00 00 00 00 00 00 00 00 6d 11 7c 2f 33 05 b2 2c
       0.0 0.0 2.2925457e-10 5.0596415e-12
000260 58 7d 6a 32 00 00 00 00 00 00 00 00 d6 9c 42 29
       1.36490925e-08 0.0 0.0 4.3212687e-14
000270 36 56 a4 2c 00 00 00 00 00 00 00 00 83 db a5 2c
       4.6707317e-12 0.0 0.0 4.7139528e-12
000280 00 00 00 00 00 00 00 00 00 00 00 00 00 00 00 00
       0.0 0.0 0.0 0.0
000290 00 00 00 00 00 00 00 00 00 00 00 00 00 00 00 00
       0.0 0.0 0.0 0.0
0002a0 00 00 00 00 00 00 00 00 00 00 00 00 00 00 00 00
       0.0 0.0 0.0 0.0
0002b0 00 00 00 00 00 00 00 00 00 00 00 00 00 00 00 00
       0.0 0.0 0.0 0.0
0002c0 00 00 00 00 00 00 00 00 00 00 00 00 00 00 00 00
       0.0 0.0 0.0 0.0
0002d0 00 00 00 00 00 00 00 00 00 00 00 00 00 00 00 00
       0.0 0.0 0.0 0.0
0002e0 00 00 00 00 00 00 00 00 00 00 00 00 00 00 00 00
       0.0 0.0 0.0 0.0
0002f0 00 00 00 00 00 00 00 00 00 00 00 00 00 00 00 00
       0.0 0.0 0.0 0.0
000300 00 00 00 00 00 00 00 00 00 00 00 00 00 00 00 00
       0.0 0.0 0.0 0.0
000310 00 00 00 00 00 00 00 00 00 00 00 00 00 00 00 00
       0.0 0.0 0.0 0.0
000320 00 00 00 00 00 00 00 00 00 00 00 00 00 00 00 00
       0.0 0.0 0.0 0.0
000330 00 00 00 00 00 00 00 00 00 00 00 00 00 00 00 00
       0.0 0.0 0.0 0.0
000340 00 00 00 00 00 00 00 00 00 00 00 00 00 00 00 00
       0.0 0.0 0.0 0.0
000350 00 00 00 00 00 00 00 00 00 00 00 00 00 00 00 00
       0.0 0.0 0.0 0.0
000360 00 00 00 00 00 00 00 00 00 00 00 00 00 00 00 00
       0.0 0.0 0.0 0.0
000370 00 00 00 00 00 00 00 00 00 00 00 00 00 00 00 00
       0.0 0.0 0.0 0.0
000380 00 00 00 00 00 00 00 00 00 00 00 00 00 00 00 00
       0.0 0.0 0.0 0.0
000390 00 00 00 00 00 00 00 00 00 00 00 00 00 00 00 00
       0.0 0.0 0.0 0.0
0003a0 00 00 00 00 00 00 00 00 00 00 00 00 00 00 00 00
       0.0 0.0 0.0 0.0
0003b0 00 00 00 00 00 00 00 00 00 00 00 00 00 00 00 00
       0.0 0.0 0.0 0.0
0003c0 00 00 00 00 00 00 00 00 00 00 00 00 00 00 00 00
       0.0 0.0 0.0 0.0
0003d0 00 00 00 00 00 00 00 00 00 00 00 00 00 00 00 00
       0.0 0.0 0.0 0.0
0003e0 00 00 00 00 00 00 00 00 00 00 00 00 00 00 00 00
       0.0 0.0 0.0 0.0
0003f0 00 00 00 00 00 00 00 00 00 00 00 00 00 00 00 00
       0.0 0.0 0.0 0.0

exp_avg f4 [128]
000000 00 00 00 00 00 00 00 00 00 00 00 00 00 00 00 00
       0.0 0.0 0.0 0.0
000010 00 00 00 00 00 00 00 00 00 00 00 00 00 00 00 00
       0.0 0.0 0.0 0.0
000020 00 00 00 00 00 00 00 00 00 00 00 00 a5 2b 88 37
       0.0 0.0 0.0 1.6232787e-05
000030 00 00 00 00 86 7c 52 38 00 00 00 00 04 00 00 00
       0.0 5.0183873e-05 0.0 6e-45
000040 00 00 00 00 00 00 00 00 00 00 00 00 00 00 00 00
       0.0 0.0 0.0 0.0
000050 00 00 00 00 00 00 00 00 00 00 00 00 00 00 00 00
       0.0 0.0 0.0 0.0
000060 00 00 00 00 00 00 00 00 00 00 00 00 00 00 00 00
       0.0 0.0 0.0 0.0
000070 00 00 00 00 f2 02 00 00 00 00 00 00 00 00 00 00
       0.0 1.057e-42 0.0 0.0
000080 04 00 00 00 00 00 00 00 00 00 00 00 00 00 00 00
       6e-45 0.0 0.0 0.0
000090 00 00 00 00 06 0c 55 b8 00 00 00 00 00 00 00 00
       0.0 -5.0794355e-05 0.0 0.0
0000a0 00 00 00 00 00 00 00 00 00 00 00 00 00 00 00 00
       0.0 0.0 0.0 0.0
0000b0 00 00 00 00 00 00 00 00 00 00 00 00 00 00 00 00
       0.0 0.0 0.0 0.0
0000c0 00 00 00 00 00 00 00 00 1b 44 85 b9 00 00 00 00
       0.0 0.0 -0.0002541848 0.0
0000d0 00 00 00 00 00 00 00 00 00 00 00 00 00 00 00 00
       0.0 0.0 0.0 0.0
0000e0 00 00 00 00 00 00 00 00 00 00 00 00 00 00 00 00
       0.0 0.0 0.0 0.0
0000f0 00 00 00 00 82 ac 35 b9 00 00 00 00 00 00 00 00
       0.0 -0.0001732577 0.0 0.0
000100 00 00 00 00 00 00 00 00 00 00 00 00 00 00 00 00
       0.0 0.0 0.0 0.0
000110 00 00 00 00 00 00 00 00 00 00 00 00 00 00 00 00
       0.0 0.0 0.0 0.0
000120 62 39 f3 39 00 00 00 00 00 00 00 00 00 00 00 00
       0.00046391325 0.0 0.0 0.0
000130 00 00 00 00 00 00 00 00 00 00 00 00 00 00 00 00
       0.0 0.0 0.0 0.0
000140 00 00 00 00 00 00 00 00 00 00 00 00 00 00 00 00
       0.0 0.0 0.0 0.0
000150 00 00 00 00 00 00 00 00 00 00 00 00 00 00 00 00
       0.0 0.0 0.0 0.0
000160 00 00 00 00 00 00 00 00 00 00 00 00 0c ab a4 39
       0.0 0.0 0.0 0.00031407957
000170 00 00 00 00 00 00 00 00 00 00 00 00 00 00 00 00
       0.0 0.0 0.0 0.0
000180 00 00 00 00 00 00 00 00 7c 3d e6 ad 00 00 00 00
       0.0 0.0 -2.6175277e-11 0.0
000190 00 00 00 00 9d 07 0d b8 00 00 00 00 00 00 00 00
       0.0 -3.362411e-05 0.0 0.0
0001a0 00 00 00 00 00 00 00 00 00 00 00 00 00 00 00 00
       0.0 0.0 0.0 0.0
0001b0 00 00 00 00 00 00 00 00 00 00 00 00 00 00 00 00
       0.0 0.0 0.0 0.0
0001c0 00 00 00 00 00 00 00 00 08 ca 7a b9 00 00 00 00
       0.0 0.0 -0.0002391712 0.0
0001d0 00 00 00 00 00 00 00 00 2b 02 4c 39 00 00 00 00
       0.0 0.0 0.00019455764 0.0
0001e0 00 00 00 00 00 00 00 00 00 00 00 00 00 00 00 00
       0.0 0.0 0.0 0.0
0001f0 00 00 00 00 00 00 00 00 00 00 00 00 00 00 00 00
       0.0 0.0 0.0 0.0

exp_avg_sq f4 [128]
000000 00 00 00 00 00 00 00 00 00 00 00 00 00 00 00 00
       0.0 0.0 0.0 0.0
000010 00 00 00 00 00 00 00 00 00 00 00 00 00 00 00 00
       0.0 0.0 0.0 0.0
000020 00 00 00 00 00 00 00 00 00 00 00 00 09 18 bb 33
       0.0 0.0 0.0 8.712238e-08
000030 00 00 00 00 f9 91 c8 36 00 00 00 00 83 db a5 2c
       0.0 5.977458e-06 0.0 4.7139528e-12
000040 00 00 00 00 00 00 00 00 00 00 00 00 00 00 00 00
       0.0 0.0 0.0 0.0
000050 00 00 00 00 00 00 00 00 00 00 00 00 00 00 00 00
       0.0 0.0 0.0 0.0
000060 00 00 00 00 00 00 00 00 00 00 00 00 00 00 00 00
       0.0 0.0 0.0 0.0
000070 00 00 00 00 84 fb 11 34 00 00 00 00 00 00 00 00
       0.0 1.3595678e-07 0.0 0.0
000080 f5 e8 70 2a 00 00 00 00 00 00 00 00 00 00 00 00
       2.1397105e-13 0.0 0.0 0.0
000090 00 00 00 00 fc 70 89 35 00 00 00 00 00 00 00 00
       0.0 1.0240178e-06 0.0 0.0
0000a0 00 00 00 00 00 00 00 00 00 00 00 00 00 00 00 00
       0.0 0.0 0.0 0.0
0000b0 00 00 00 00 00 00 00 00 00 00 00 00 00 00 00 00
       0.0 0.0 0.0 0.0
0000c0 00 00 00 00 00 00 00 00 1d 6d 92 36 00 00 00 00
       0.0 0.0 4.3638415e-06 0.0
0000d0 00 00 00 00 00 00 00 00 00 00 00 00 00 00 00 00
       0.0 0.0 0.0 0.0
0000e0 00 00 00 00 00 00 00 00 00 00 00 00 00 00 00 00
       0.0 0.0 0.0 0.0
0000f0 00 00 00 00 91 c1 63 36 00 00 00 00 00 00 00 00
       0.0 3.3938306e-06 0.0 0.0
000100 00 00 00 00 00 00 00 00 00 00 00 00 00 00 00 00
       0.0 0.0 0.0 0.0
000110 00 00 00 00 00 00 00 00 00 00 00 00 00 00 00 00
       0.0 0.0 0.0 0.0
000120 52 86 e4 36 00 00 00 00 00 00 00 00 00 00 00 00
       6.8105664e-06 0.0 0.0 0.0
000130 00 00 00 00 00 00 00 00 00 00 00 00 00 00 00 00
       0.0 0.0 0.0 0.0
000140 00 00 00 00 00 00 00 00 00 00 00 00 00 00 00 00
       0.0 0.0 0.0 0.0
000150 00 00 00 00 00 00 00 00 00 00 00 00 00 00 00 00
       0.0 0.0 0.0 0.0
000160 00 00 00 00 00 00 00 00 00 00 00 00 a2 58 02 37
       0.0 0.0 0.0 7.76924e-06
000170 00 00 00 00 00 00 00 00 00 00 00 00 00 00 00 00
       0.0 0.0 0.0 0.0
000180 00 00 00 00 00 00 00 00 ac d2 dd 35 00 00 00 00
       0.0 0.0 1.6527097e-06 0.0
000190 00 00 00 00 45 af 23 34 00 00 00 00 00 00 00 00
       0.0 1.524432e-07 0.0 0.0
0001a0 00 00 00 00 00 00 00 00 00 00 00 00 00 00 00 00
       0.0 0.0 0.0 0.0
0001b0 00 00 00 00 00 00 00 00 00 00 00 00 00 00 00 00
       0.0 0.0 0.0 0.0
0001c0 00 00 00 00 00 00 00 00 f8 c6 eb 36 00 00 00 00
       0.0 0.0 7.0267088e-06 0.0
0001d0 00 00 00 00 00 00 00 00 d2 39 ad 35 00 00 00 00
       0.0 0.0 1.2906332e-06 0.0
0001e0 00 00 00 00 00 00 00 00 00 00 00 00 00 00 00 00
       0.0 0.0 0.0 0.0
0001f0 00 00 00 00 00 00 00 00 00 00 00 00 00 00 00 00
       0.0 0.0 0.0 0.0

exp_avg f4 [64, 128]
000000 00 00 00 00 00 00 00 00 00 00 00 00 00 00 00 00
       0.0 0.0 0.0 0.0
000010 00 00 00 00 00 00 00 00 00 00 00 00 00 00 00 00
       0.0 0.0 0.0 0.0
000020 00 00 00 00 00 00 00 00 00 00 00 00 00 00 00 00
       0.0 0.0 0.0 0.0
000030 00 00 00 00 00 00 00 00 00 00 00 00 00 00 00 00
       0.0 0.0 0.0 0.0
000040 00 00 00 00 00 00 00 00 00 00 00 00 00 00 00 00
       0.0 0.0 0.0 0.0
000050 00 00 00 00 00 00 00 00 00 00 00 00 00 00 00 00
       0.0 0.0 0.0 0.0
000060 00 00 00 00 00 00 00 00 00 00 00 00 00 00 00 00
       0.0 0.0 0.0 0.0
000070 00 00 00 00 00 00 00 00 00 00 00 00 00 00 00 00
       0.0 0.0 0.0 0.0
000080 00 00 00 00 00 00 00 00 00 00 00 00 00 00 00 00
       0.0 0.0 0.0 0.0
000090 00 00 00 00 00 00 00 00 00 00 00 00 00 00 00 00
       0.0 0.0 0.0 0.0
0000a0 00 00 00 00 00 00 00 00 00 00 00 00 00 00 00 00
       0.0 0.0 0.0 0.0
0000b0 00 00 00 00 00 00 00 00 00 00 00 00 00 00 00 00
       0.0 0.0 0.0 0.0
0000c0 00 00 00 00 00 00 00 00 00 00 00 00 00 00 00 00
       0.0 0.0 0.0 0.0
0000d0 00 00 00 00 00 00 00 00 00 00 00 00 00 00 00 00
       0.0 0.0 0.0 0.0
0000e0 00 00 00 00 00 00 00 00 00 00 00 00 00 00 00 00
       0.0 0.0 0.0 0.0
0000f0 00 00 00 00 04 00 00 00 00 00 00 00 00 00 00 00
       0.0 6e-45 0.0 0.0
000100 00 00 00 00 00 00 00 00 00 00 00 00 00 00 00 00
       0.0 0.0 0.0 0.0
000110 00 00 00 00 00 00 00 00 00 00 00 00 00 00 00 00
       0.0 0.0 0.0 0.0
000120 00 00 00 00 00 00 00 00 00 00 00 00 00 00 00 00
       0.0 0.0 0.0 0.0
000130 00 00 00 00 00 00 00 00 00 00 00 00 00 00 00 00
       0.0 0.0 0.0 0.0
000140 00 00 00 00 00 00 00 00 00 00 00 00 00 00 00 00
       0.0 0.0 0.0 0.0
000150 00 00 00 00 00 00 00 00 00 00 00 00 00 00 00 00
       0.0 0.0 0.0 0.0
000160 00 00 00 00 00 00 00 00 00 00 00 00 00 00 00 00
       0.0 0.0 0.0 0.0
000170 00 00 00 00 00 00 00 00 00 00 00 00 00 00 00 00
       0.0 0.0 0.0 0.0
000180 00 00 00 00 00 00 00 00 00 00 00 00 00 00 00 00
       0.0 0.0 0.0 0.0
000190 00 00 00 00 00 00 00 00 00 00 00 00 00 00 00 00
       0.0 0.0 0.0 0.0
0001a0 00 00 00 00 00 00 00 00 00 00 00 00 00 00 00 00
       0.0 0.0 0.0 0.0
0001b0 00 00 00 00 00 00 00 00 00 00 00 00 00 00 00 00
       0.0 0.0 0.0 0.0
0001c0 00 00 00 00 00 00 00 00 00 00 00 00 00 00 00 00
       0.0 0.0 0.0 0.0
0001d0 00 00 00 00 00 00 00 00 04 00 00 00 00 00 00 00
       0.0 0.0 6e-45 0.0
0001e0 00 00 00 00 00 00 00 00 00 00 00 00 00 00 00 00
       0.0 0.0 0.0 0.0
0001f0 00 00 00 00 00 00 00 00 00 00 00 00 00 00 00 00
       0.0 0.0 0.0 0.0
000200 00 00 00 00 00 00 00 00 00 00 00 00 00 00 00 00
       0.0 0.0 0.0 0.0
000210 00 00 00 00 00 00 00 00 00 00 00 00 00 00 00 00
       0.0 0.0 0.0 0.0
000220 00 00 00 00 00 00 00 00 00 00 00 00 00 00 00 00
       0.0 0.0 0.0 0.0
000230 00 00 00 00 00 00 00 00 00 00 00 00 00 00 00 00
       0.0 0.0 0.0 0.0
000240 00 00 00 00 00 00 00 00 00 00 00 00 00 00 00 00
       0.0 0.0 0.0 0.0
000250 00 00 00 00 00 00 00 00 00 00 00 00 00 00 00 00
       0.0 0.0 0.0 0.0
000260 00 00 00 00 00 00 00 00 00 00 00 00 00 00 00 00
       0.0 0.0 0.0 0.0
000270 00 00 00 00 00 00 00 00 00 00 00 00 00 00 00 00
       0.0 0.0 0.0 0.0
000280 00 00 00 00 00 00 00 00 00 00 00 00 00 00 00 00
       0.0 0.0 0.0 0.0
000290 00 00 00 00 00 00 00 00 00 00 00 00 00 00 00 00
       0.0 0.0 0.0 0.0
0002a0 00 00 00 00 00 00 00 00 00 00 00 00 00 00 00 00
       0.0 0.0 0.0 0.0
0002b0 00 00 00 00 00 00 00 00 00 00 00 00 00 00 00 00
       0.0 0.0 0.0 0.0
0002c0 00 00 00 00 00 00 00 00 00 00 00 00 00 00 00 00
       0.0 0.0 0.0 0.0
0002d0 00 00 00 00 00 00 00 00 00 00 00 00 00 00 00 00
       0.0 0.0 0.0 0.0
0002e0 00 00 00 00 00 00 00 00 00 00 00 00 00 00 00 00
       0.0 0.0 0.0 0.0
0002f0 00 00 00 00 00 00 00 00 00 00 00 00 00 00 00 00
       0.0 0.0 0.0 0.0
000300 00 00 00 00 00 00 00 00 00 00 00 00 00 00 00 00
       0.0 0.0 0.0 0.0
000310 00 00 00 00 00 00 00 00 00 00 00 00 00 00 00 00
       0.0 0.0 0.0 0.0
000320 00 00 00 00 00 00 00 00 00 00 00 00 00 00 00 00
       0.0 0.0 0.0 0.0
000330 00 00 00 00 00 00 00 00 00 00 00 00 00 00 00 00
       0.0 0.0 0.0 0.0
000340 00 00 00 00 00 00 00 00 00 00 00 00 00 00 00 00
       0.0 0.0 0.0 0.0
000350 00 00 00 00 00 00 00 00 00 00 00 00 00 00 00 00
       0.0 0.0 0.0 0.0
000360 00 00 00 00 00 00 00 00 00 00 00 00 00 00 00 00
       0.0 0.0 0.0 0.0
000370 00 00 00 00 00 00 00 00 00 00 00 00 00 00 00 00
       0.0 0.0 0.0 0.0
000380 00 00 00 00 00 00 00 00 00 00 00 00 00 00 00 00
       0.0 0.0 0.0 0.0
000390 00 00 00 00 00 00 00 00 00 00 00 00 00 00 00 00
       0.0 0.0 0.0 0.0
0003a0 00 00 00 00 00 00 00 00 00 00 00 00 00 00 00 00
       0.0 0.0 0.0 0.0
0003b0 00 00 00 00 00 00 00 00 00 00 00 00 00 00 00 00
       0.0 0.0 0.0 0.0
0003c0 00 00 00 00 00 00 00 00 00 00 00 00 00 00 00 00
       0.0 0.0 0.0 0.0
0003d0 00 00 00 00 00 00 00 00 00 00 00 00 00 00 00 00
       0.0 0.0 0.0 0.0
0003e0 00 00 00 00 00 00 00 00 00 00 00 00 00 00 00 00
       0.0 0.0 0.0 0.0
0003f0 00 00 00 00 00 00 00 00 00 00 00 00 00 00 00 00
       0.0 0.0 0.0 0.0
